2024-03-14 12:44:00,046 - root - INFO - Logging configuration loaded from /home/bletchkey/ASGNTC/config/logging.json
2024-03-14 12:44:00,081 - root - INFO - Baseline(
  (conv1): Conv2d(1, 64, kernel_size=(3, 3), stride=(1, 1))
  (conv2): Conv2d(64, 64, kernel_size=(3, 3), stride=(1, 1))
  (conv3): Conv2d(64, 128, kernel_size=(3, 3), stride=(1, 1))
  (conv4): Conv2d(128, 128, kernel_size=(3, 3), stride=(1, 1))
  (conv5): Conv2d(128, 256, kernel_size=(3, 3), stride=(1, 1))
  (conv6): Conv2d(256, 256, kernel_size=(3, 3), stride=(1, 1))
  (output_conv): Conv2d(256, 1, kernel_size=(1, 1), stride=(1, 1))
  (relu): ReLU()
)
2024-03-14 13:37:10,835 - root - INFO - Logging configuration loaded from /home/bletchkey/ASGNTC/config/logging.json
2024-03-14 13:37:10,869 - root - INFO - Baseline(
  (conv1): Conv2d(1, 64, kernel_size=(3, 3), stride=(1, 1))
  (conv2): Conv2d(64, 64, kernel_size=(3, 3), stride=(1, 1))
  (conv3): Conv2d(64, 128, kernel_size=(3, 3), stride=(1, 1))
  (conv4): Conv2d(128, 128, kernel_size=(3, 3), stride=(1, 1))
  (conv5): Conv2d(128, 256, kernel_size=(3, 3), stride=(1, 1))
  (conv6): Conv2d(256, 256, kernel_size=(3, 3), stride=(1, 1))
  (output_conv): Conv2d(256, 1, kernel_size=(1, 1), stride=(1, 1))
  (relu): ReLU()
)
2024-03-14 13:42:05,980 - root - INFO - Logging configuration loaded from /home/bletchkey/ASGNTC/config/logging.json
2024-03-14 13:42:06,017 - root - INFO - Baseline(
  (conv1): Conv2d(1, 64, kernel_size=(3, 3), stride=(1, 1))
  (conv2): Conv2d(64, 64, kernel_size=(3, 3), stride=(1, 1))
  (conv3): Conv2d(64, 128, kernel_size=(3, 3), stride=(1, 1))
  (conv4): Conv2d(128, 128, kernel_size=(3, 3), stride=(1, 1))
  (conv5): Conv2d(128, 256, kernel_size=(3, 3), stride=(1, 1))
  (conv6): Conv2d(256, 256, kernel_size=(3, 3), stride=(1, 1))
  (output_conv): Conv2d(256, 1, kernel_size=(1, 1), stride=(1, 1))
  (relu): ReLU()
)
2024-03-14 13:57:24,557 - root - INFO - Logging configuration loaded from /home/bletchkey/ASGNTC/config/logging.json
2024-03-14 13:57:24,590 - root - INFO - Baseline(
  (conv1): Conv2d(1, 64, kernel_size=(3, 3), stride=(1, 1))
  (conv2): Conv2d(64, 64, kernel_size=(3, 3), stride=(1, 1))
  (conv3): Conv2d(64, 128, kernel_size=(3, 3), stride=(1, 1))
  (conv4): Conv2d(128, 128, kernel_size=(3, 3), stride=(1, 1))
  (conv5): Conv2d(128, 256, kernel_size=(3, 3), stride=(1, 1))
  (conv6): Conv2d(256, 256, kernel_size=(3, 3), stride=(1, 1))
  (output_conv): Conv2d(256, 1, kernel_size=(1, 1), stride=(1, 1))
  (relu): ReLU()
)
