2024-03-14 12:44:00,046 - root - INFO - Logging configuration loaded from /home/bletchkey/ASGNTC/config/logging.json
2024-03-14 12:44:00,081 - root - INFO - Baseline(
  (conv1): Conv2d(1, 64, kernel_size=(3, 3), stride=(1, 1))
  (conv2): Conv2d(64, 64, kernel_size=(3, 3), stride=(1, 1))
  (conv3): Conv2d(64, 128, kernel_size=(3, 3), stride=(1, 1))
  (conv4): Conv2d(128, 128, kernel_size=(3, 3), stride=(1, 1))
  (conv5): Conv2d(128, 256, kernel_size=(3, 3), stride=(1, 1))
  (conv6): Conv2d(256, 256, kernel_size=(3, 3), stride=(1, 1))
  (output_conv): Conv2d(256, 1, kernel_size=(1, 1), stride=(1, 1))
  (relu): ReLU()
)
2024-03-14 13:37:10,835 - root - INFO - Logging configuration loaded from /home/bletchkey/ASGNTC/config/logging.json
2024-03-14 13:37:10,869 - root - INFO - Baseline(
  (conv1): Conv2d(1, 64, kernel_size=(3, 3), stride=(1, 1))
  (conv2): Conv2d(64, 64, kernel_size=(3, 3), stride=(1, 1))
  (conv3): Conv2d(64, 128, kernel_size=(3, 3), stride=(1, 1))
  (conv4): Conv2d(128, 128, kernel_size=(3, 3), stride=(1, 1))
  (conv5): Conv2d(128, 256, kernel_size=(3, 3), stride=(1, 1))
  (conv6): Conv2d(256, 256, kernel_size=(3, 3), stride=(1, 1))
  (output_conv): Conv2d(256, 1, kernel_size=(1, 1), stride=(1, 1))
  (relu): ReLU()
)
2024-03-14 13:42:05,980 - root - INFO - Logging configuration loaded from /home/bletchkey/ASGNTC/config/logging.json
2024-03-14 13:42:06,017 - root - INFO - Baseline(
  (conv1): Conv2d(1, 64, kernel_size=(3, 3), stride=(1, 1))
  (conv2): Conv2d(64, 64, kernel_size=(3, 3), stride=(1, 1))
  (conv3): Conv2d(64, 128, kernel_size=(3, 3), stride=(1, 1))
  (conv4): Conv2d(128, 128, kernel_size=(3, 3), stride=(1, 1))
  (conv5): Conv2d(128, 256, kernel_size=(3, 3), stride=(1, 1))
  (conv6): Conv2d(256, 256, kernel_size=(3, 3), stride=(1, 1))
  (output_conv): Conv2d(256, 1, kernel_size=(1, 1), stride=(1, 1))
  (relu): ReLU()
)
2024-03-14 13:57:24,557 - root - INFO - Logging configuration loaded from /home/bletchkey/ASGNTC/config/logging.json
2024-03-14 13:57:24,590 - root - INFO - Baseline(
  (conv1): Conv2d(1, 64, kernel_size=(3, 3), stride=(1, 1))
  (conv2): Conv2d(64, 64, kernel_size=(3, 3), stride=(1, 1))
  (conv3): Conv2d(64, 128, kernel_size=(3, 3), stride=(1, 1))
  (conv4): Conv2d(128, 128, kernel_size=(3, 3), stride=(1, 1))
  (conv5): Conv2d(128, 256, kernel_size=(3, 3), stride=(1, 1))
  (conv6): Conv2d(256, 256, kernel_size=(3, 3), stride=(1, 1))
  (output_conv): Conv2d(256, 1, kernel_size=(1, 1), stride=(1, 1))
  (relu): ReLU()
)
2024-03-14 14:05:56,309 - root - INFO - Logging configuration loaded from /home/bletchkey/ASGNTC/config/logging.json
2024-03-14 14:05:56,345 - root - INFO - Baseline(
  (conv1): Conv2d(1, 64, kernel_size=(3, 3), stride=(1, 1))
  (conv2): Conv2d(64, 64, kernel_size=(3, 3), stride=(1, 1))
  (conv3): Conv2d(64, 128, kernel_size=(3, 3), stride=(1, 1))
  (conv4): Conv2d(128, 128, kernel_size=(3, 3), stride=(1, 1))
  (conv5): Conv2d(128, 256, kernel_size=(3, 3), stride=(1, 1))
  (conv6): Conv2d(256, 256, kernel_size=(3, 3), stride=(1, 1))
  (output_conv): Conv2d(256, 1, kernel_size=(1, 1), stride=(1, 1))
  (relu): ReLU()
)
2024-03-14 14:05:58,132 - root - INFO - Data tensor shape: torch.Size([16384, 5, 1, 32, 32]), used for creating the dataloader.
2024-03-14 14:11:18,210 - root - INFO - Data tensor shape: torch.Size([32768, 5, 1, 32, 32]), used for creating the dataloader.
2024-03-14 14:17:03,250 - root - INFO - Logging configuration loaded from /home/bletchkey/ASGNTC/config/logging.json
2024-03-14 14:17:03,285 - root - INFO - Baseline(
  (conv1): Conv2d(1, 64, kernel_size=(3, 3), stride=(1, 1))
  (conv2): Conv2d(64, 64, kernel_size=(3, 3), stride=(1, 1))
  (conv3): Conv2d(64, 128, kernel_size=(3, 3), stride=(1, 1))
  (conv4): Conv2d(128, 128, kernel_size=(3, 3), stride=(1, 1))
  (conv5): Conv2d(128, 256, kernel_size=(3, 3), stride=(1, 1))
  (conv6): Conv2d(256, 256, kernel_size=(3, 3), stride=(1, 1))
  (output_conv): Conv2d(256, 1, kernel_size=(1, 1), stride=(1, 1))
  (relu): ReLU()
)
2024-03-14 14:17:05,042 - root - INFO - Data tensor shape: torch.Size([16384, 5, 1, 32, 32]), used for creating the dataloader.
2024-03-14 14:22:18,378 - root - INFO - Generator can be trained from epoch 1 onwards
2024-03-14 14:22:22,273 - root - INFO - Data tensor shape: torch.Size([32768, 5, 1, 32, 32]), used for creating the dataloader.
2024-03-14 14:38:45,131 - root - INFO - Data tensor shape: torch.Size([49152, 5, 1, 32, 32]), used for creating the dataloader.
2024-03-14 14:51:11,318 - root - INFO - Logging configuration loaded from /home/bletchkey/ASGNTC/config/logging.json
2024-03-14 14:51:11,352 - root - INFO - Baseline(
  (conv1): Conv2d(1, 64, kernel_size=(3, 3), stride=(1, 1))
  (conv2): Conv2d(64, 64, kernel_size=(3, 3), stride=(1, 1))
  (conv3): Conv2d(64, 128, kernel_size=(3, 3), stride=(1, 1))
  (conv4): Conv2d(128, 128, kernel_size=(3, 3), stride=(1, 1))
  (conv5): Conv2d(128, 256, kernel_size=(3, 3), stride=(1, 1))
  (conv6): Conv2d(256, 256, kernel_size=(3, 3), stride=(1, 1))
  (output_conv): Conv2d(256, 1, kernel_size=(1, 1), stride=(1, 1))
  (relu): ReLU()
)
2024-03-14 15:09:46,511 - root - INFO - Data tensor shape: torch.Size([65536, 5, 1, 32, 32]), used for creating the dataloader.
Epoch 00110: reducing learning rate of group 0 to 1.0000e-03.
Traceback (most recent call last):
  File "main.py", line 99, in <module>
    RETCODE = main()
  File "main.py", line 92, in main
    train_predictor()
…
  File "/home/bletchkey/.local/lib/python3.8/site-packages/torch/_tensor.py", line 492, in backward
    torch.autograd.backward(
  File "/home/bletchkey/.local/lib/python3.8/site-packages/torch/autograd/__init__.py", line 251, in backward
    Variable._execution_engine.run_backward(  # Calls into the C++ engine to run the backward pass
RuntimeError: Function 'CudnnBatchNormBackward0' returned nan values in its 0th output.
2024-03-17 02:36:15,671 - root - INFO - Logging configuration loaded from /home/bletchkey/ASGNTC/config/logging.json
2024-03-17 02:36:15,712 - root - INFO - Baseline_v4(
  (in_conv): Conv2d(1, 32, kernel_size=(3, 3), stride=(1, 1))
  (convs): ModuleList(
    (0-39): 40 x Conv2d(32, 32, kernel_size=(3, 3), stride=(1, 1))
  )
  (bn_layers): ModuleList(
    (0-39): 40 x BatchNorm2d(32, eps=1e-05, momentum=0.1, affine=True, track_running_stats=True)
  )
  (out_conv): Conv2d(32, 1, kernel_size=(1, 1), stride=(1, 1))
  (relu): ReLU()
)
Epoch 00018: reducing learning rate of group 0 to 1.0000e-04.
Epoch 00025: reducing learning rate of group 0 to 1.0000e-05.
Epoch 00033: reducing learning rate of group 0 to 1.0000e-06.
Epoch 00038: reducing learning rate of group 0 to 1.0000e-07.
Epoch 00043: reducing learning rate of group 0 to 1.0000e-08.
2024-03-17 12:04:53,847 - root - INFO - Logging configuration loaded from /home/bletchkey/ASGNTC/config/logging.json
2024-03-17 12:04:53,882 - root - INFO - Baseline_v4(
  (in_conv): Conv2d(1, 32, kernel_size=(3, 3), stride=(1, 1))
  (convs): ModuleList(
    (0-39): 40 x Conv2d(32, 32, kernel_size=(3, 3), stride=(1, 1))
  )
  (bn_layers): ModuleList(
    (0-39): 40 x BatchNorm2d(32, eps=1e-05, momentum=0.1, affine=True, track_running_stats=True)
  )
  (out_conv): Conv2d(32, 1, kernel_size=(1, 1), stride=(1, 1))
  (relu): ReLU()
)
2024-03-17 12:12:58,568 - root - INFO - Logging configuration loaded from /home/bletchkey/ASGNTC/config/logging.json
2024-03-17 12:12:58,608 - root - INFO - Baseline_v4(
  (in_conv): Conv2d(1, 32, kernel_size=(3, 3), stride=(1, 1))
  (convs): ModuleList(
    (0-39): 40 x Conv2d(32, 32, kernel_size=(3, 3), stride=(1, 1))
  )
  (bn_layers): ModuleList(
    (0-39): 40 x BatchNorm2d(32, eps=1e-05, momentum=0.1, affine=True, track_running_stats=True)
  )
  (out_conv): Conv2d(32, 1, kernel_size=(1, 1), stride=(1, 1))
  (relu): ReLU()
)
2024-03-17 12:13:11,636 - root - INFO - Training started at 17/03/2024 12:13:11
2024-03-17 12:14:28,758 - root - INFO - Logging configuration loaded from /home/bletchkey/ASGNTC/config/logging.json
2024-03-17 12:14:28,795 - root - INFO - Baseline_v4(
  (in_conv): Conv2d(1, 32, kernel_size=(3, 3), stride=(1, 1))
  (convs): ModuleList(
    (0-39): 40 x Conv2d(32, 32, kernel_size=(3, 3), stride=(1, 1))
  )
  (bn_layers): ModuleList(
    (0-39): 40 x BatchNorm2d(32, eps=1e-05, momentum=0.1, affine=True, track_running_stats=True)
  )
  (out_conv): Conv2d(32, 1, kernel_size=(1, 1), stride=(1, 1))
  (relu): ReLU()
)
2024-03-17 12:14:41,705 - root - INFO - Training started at 17/03/2024 12:14:41
2024-03-17 12:25:57,463 - root - INFO - Training started at 17/03/2024 12:25:57
2024-03-17 17:43:02,911 - root - INFO - Training started at 17/03/2024 17:43:02
2024-03-17 18:34:18,825 - root - INFO - Training started at 17/03/2024 18:34:18
2024-03-17 18:42:16,286 - root - INFO - Training started at 17/03/2024 18:42:16
…
